…
2025-11-30 16:54:20 - INFO - Visualization saved to: 97_logs\model_architecture_20251130_165420.png
2025-11-30 16:54:20 - INFO - 
2025-11-30 16:54:20 - INFO - ================================================================================
2025-11-30 16:54:20 - INFO - MODEL ARCHITECTURE
2025-11-30 16:54:20 - INFO - ================================================================================
2025-11-30 16:54:20 - INFO - 
2025-11-30 16:54:20 - INFO - Model Structure:
2025-11-30 16:54:20 - INFO - 
2025-11-30 16:54:20 - INFO -   SimpleLanguageModel(
2025-11-30 16:54:20 - INFO -     (token_embedding): Embedding(48, 128)
2025-11-30 16:54:20 - INFO -     (position_embedding): Embedding(128, 128)
2025-11-30 16:54:20 - INFO -     (blocks): Sequential(
2025-11-30 16:54:20 - INFO -       (0): TransformerEncoderLayer(
2025-11-30 16:54:20 - INFO -         (self_attn): MultiheadAttention(
2025-11-30 16:54:20 - INFO -           (out_proj): NonDynamicallyQuantizableLinear(in_features=128, out_features=128, bias=True)
2025-11-30 16:54:20 - INFO -         )
2025-11-30 16:54:20 - INFO -         (linear1): Linear(in_features=128, out_features=512, bias=True)
2025-11-30 16:54:20 - INFO -         (dropout): Dropout(p=0.1, inplace=False)
2025-11-30 16:54:20 - INFO -         (linear2): Linear(in_features=512, out_features=128, bias=True)
2025-11-30 16:54:20 - INFO -         (norm1): LayerNorm((128,), eps=1e-05, elementwise_affine=True)
2025-11-30 16:54:20 - INFO -         (norm2): LayerNorm((128,), eps=1e-05, elementwise_affine=True)
2025-11-30 16:54:20 - INFO -         (dropout1): Dropout(p=0.1, inplace=False)
2025-11-30 16:54:20 - INFO -         (dropout2): Dropout(p=0.1, inplace=False)
2025-11-30 16:54:20 - INFO -       )
2025-11-30 16:54:20 - INFO -       (1): TransformerEncoderLayer(
2025-11-30 16:54:20 - INFO -         (self_attn): MultiheadAttention(
2025-11-30 16:54:20 - INFO -           (out_proj): NonDynamicallyQuantizableLinear(in_features=128, out_features=128, bias=True)
2025-11-30 16:54:20 - INFO -         )
2025-11-30 16:54:20 - INFO -         (linear1): Linear(in_features=128, out_features=512, bias=True)
2025-11-30 16:54:20 - INFO -         (dropout): Dropout(p=0.1, inplace=False)
2025-11-30 16:54:20 - INFO -         (linear2): Linear(in_features=512, out_features=128, bias=True)
2025-11-30 16:54:20 - INFO -         (norm1): LayerNorm((128,), eps=1e-05, elementwise_affine=True)
2025-11-30 16:54:20 - INFO -         (norm2): LayerNorm((128,), eps=1e-05, elementwise_affine=True)
2025-11-30 16:54:20 - INFO -         (dropout1): Dropout(p=0.1, inplace=False)
2025-11-30 16:54:20 - INFO -         (dropout2): Dropout(p=0.1, inplace=False)
2025-11-30 16:54:20 - INFO -       )
2025-11-30 16:54:20 - INFO -       (2): TransformerEncoderLayer(
2025-11-30 16:54:20 - INFO -         (self_attn): MultiheadAttention(
2025-11-30 16:54:20 - INFO -           (out_proj): NonDynamicallyQuantizableLinear(in_features=128, out_features=128, bias=True)
2025-11-30 16:54:20 - INFO -         )
2025-11-30 16:54:20 - INFO -         (linear1): Linear(in_features=128, out_features=512, bias=True)
2025-11-30 16:54:20 - INFO -         (dropout): Dropout(p=0.1, inplace=False)
2025-11-30 16:54:20 - INFO -         (linear2): Linear(in_features=512, out_features=128, bias=True)
2025-11-30 16:54:20 - INFO -         (norm1): LayerNorm((128,), eps=1e-05, elementwise_affine=True)
2025-11-30 16:54:20 - INFO -         (norm2): LayerNorm((128,), eps=1e-05, elementwise_affine=True)
2025-11-30 16:54:20 - INFO -         (dropout1): Dropout(p=0.1, inplace=False)
2025-11-30 16:54:20 - INFO -         (dropout2): Dropout(p=0.1, inplace=False)
2025-11-30 16:54:20 - INFO -       )
2025-11-30 16:54:20 - INFO -     )
2025-11-30 16:54:20 - INFO -     (ln_f): LayerNorm((128,), eps=1e-05, elementwise_affine=True)
2025-11-30 16:54:20 - INFO -     (head): Linear(in_features=128, out_features=48, bias=True)
2025-11-30 16:54:20 - INFO -   )
2025-11-30 16:54:20 - INFO - 
2025-11-30 16:54:20 - INFO - ================================================================================
2025-11-30 16:54:20 - INFO - PARAMETER BREAKDOWN BY LAYER
2025-11-30 16:54:20 - INFO - ================================================================================
2025-11-30 16:54:20 - INFO - 
…
